…
                                                             |   0   0  20   5 |   0   0 142  27 |
                                                             |   0   0   1  20 |   1   6  11 114 |
---------------------------------------------------------------------------------------------------
--------------------------------------------------------------------------------
Initial input shape: (None, 1, 726, 568)
--------------------------------------------------------------------------------
Layer (name)                  Output Shape                  Param #             
--------------------------------------------------------------------------------
Convolution2D (convolution2d) (None, 16, 726, 568)          2320                
Activation (activation)       (None, 16, 726, 568)          0                   
MaxPooling2D (maxpooling2d)   (None, 16, 242, 189)          0                   
BatchNormalization (batchnorma(None, 16, 242, 189)          32                  
Convolution2D (convolution2d) (None, 16, 242, 189)          25616               
Activation (activation)       (None, 16, 242, 189)          0                   
MaxPooling2D (maxpooling2d)   (None, 16, 48, 37)            0                   
BatchNormalization (batchnorma(None, 16, 48, 37)            32                  
Convolution2D (convolution2d) (None, 16, 48, 37)            16400               
Activation (activation)       (None, 16, 48, 37)            0                   
MaxPooling2D (maxpooling2d)   (None, 16, 9, 7)              0                   
BatchNormalization (batchnorma(None, 16, 9, 7)              32                  
Flatten (flatten)             (None, 1008)                  0                   
Dense (dense)                 (None, 48)                    48432               
Activation (activation)       (None, 48)                    0                   
BatchNormalization (batchnorma(None, 48)                    96                  
Dense (dense)                 (None, 32)                    1568                
Activation (activation)       (None, 32)                    0                   
BatchNormalization (batchnorma(None, 32)                    64                  
Dense (dense)                 (None, 4)                     132                 
Activation (activation)       (None, 4)                     0                   
--------------------------------------------------------------------------------
Total params: 94724
--------------------------------------------------------------------------------
total time: 18450.58
type q to quit, or anything else to rerun script keras_convnet.py
