# this is the first big run on 7 layers, 3.4 sec a step, minibatches are now 64
# evaluation set is 400, takes 9 seconds for evaluations

Here is the model:

--------------------------------------------------------------------------------
Initial input shape: (None, 1, 726, 568)
--------------------------------------------------------------------------------
Layer (name)                  Output Shape                  Param #   kernel          
--------------------------------------------------------------------------------
Convolution2D (convolution2d) (None, 16, 726, 568)          2320      16,12,12          
Activation (activation)       (None, 16, 726, 568)          0                   
MaxPooling2D (maxpooling2d)   (None, 16, 181, 142)          0                   
BatchNormalization (batchnorma(None, 16, 181, 142)          32                  

Convolution2D (convolution2d) (None, 16, 181, 142)          36880     16,12,12          
Activation (activation)       (None, 16, 181, 142)          0                   
MaxPooling2D (maxpooling2d)   (None, 16, 45, 35)            0                   
BatchNormalization (batchnorma(None, 16, 45, 35)            32                  

Convolution2D (convolution2d) (None, 12, 45, 35)            19212     12,10,10           
Activation (activation)       (None, 12, 45, 35)            0                   
MaxPooling2D (maxpooling2d)   (None, 12, 11, 9)             0                   
BatchNormalization (batchnorma(None, 12, 11, 9)             24                  

Convolution2D (convolution2d) (None, 8, 11, 9)              1544       8,4,4  
Activation (activation)       (None, 8, 11, 9)              0                   
MaxPooling2D (maxpooling2d)   (None, 8, 5, 4)               0                   
BatchNormalization (batchnorma(None, 8, 5, 4)               16                  

Flatten (flatten)             (None, 160)                   0                   

Dense (dense)                 (None, 32)                    5152                
Activation (activation)       (None, 32)                    0                   
BatchNormalization (batchnorma(None, 32)                    64                  

Dense (dense)                 (None, 16)                    528                 
Activation (activation)       (None, 16)                    0                   
BatchNormalization (batchnorma(None, 16)                    32                  

Dense (dense)                 (None, 4)                     68                  
Activation (activation)       (None, 4)                     0                   
--------------------------------------------------------------------------------
Total params: 65904
--------------------------------------------------------------------------------
total time: 17158.15 = 4 hours, 45 minutes

Other parameters, 5000 steps, evaluations every 250 steps (epoch is 258).
optimizer: sgd = SGD(lr=0.01, momentum=0.96) with a learning rate schedule that
           applies 0.97 decay every 100 steps, with a min lr of 0.003
…
